…
    pretrain_model_K: ../experiments/pretrained_models/stage1_MANet_x4.pth
    root: C:\Users\14945\Desktop\MANet-main
    results_root: C:\Users\14945\Desktop\MANet-main\results\001_MANet_aniso_x4_test_stage1
    log: C:\Users\14945\Desktop\MANet-main\results\001_MANet_aniso_x4_test_stage1
  ]
  is_train: False

22-10-27 18:39:10.810 - INFO: Dataset [GTDataset - toy_dataset1] is created.
22-10-27 18:39:10.810 - INFO: Number of test images in [toy_dataset1]: 2
22-10-27 18:39:10.930 - INFO: Network G structure: DataParallel - MANet_s1, with parameters: 1,810,361
22-10-27 18:39:10.930 - INFO: MANet_s1(
  (kernel_estimation): MANet(
    (m_head): Conv2d(3, 128, kernel_size=(3, 3), stride=(1, 1), padding=(1, 1))
    (m_down1): Sequential(
      (0): MABlock(
        (res): Sequential(
          (0): MAConv(
            (fc0): Sequential(
              (0): Conv2d(64, 32, kernel_size=(1, 1), stride=(1, 1))
              (1): ReLU(inplace=True)
              (2): Conv2d(32, 128, kernel_size=(1, 1), stride=(1, 1))
            )
            (conv0): Conv2d(64, 64, kernel_size=(3, 3), stride=(1, 1), padding=(1, 1))
            (fc1): Sequential(
              (0): Conv2d(64, 32, kernel_size=(1, 1), stride=(1, 1))
              (1): ReLU(inplace=True)
              (2): Conv2d(32, 128, kernel_size=(1, 1), stride=(1, 1))
            )
            (conv1): Conv2d(64, 64, kernel_size=(3, 3), stride=(1, 1), padding=(1, 1))
          )
          (1): ReLU(inplace=True)
          (2): MAConv(
            (fc0): Sequential(
              (0): Conv2d(64, 32, kernel_size=(1, 1), stride=(1, 1))
              (1): ReLU(inplace=True)
              (2): Conv2d(32, 128, kernel_size=(1, 1), stride=(1, 1))
            )
            (conv0): Conv2d(64, 64, kernel_size=(3, 3), stride=(1, 1), padding=(1, 1))
            (fc1): Sequential(
              (0): Conv2d(64, 32, kernel_size=(1, 1), stride=(1, 1))
              (1): ReLU(inplace=True)
              (2): Conv2d(32, 128, kernel_size=(1, 1), stride=(1, 1))
            )
            (conv1): Conv2d(64, 64, kernel_size=(3, 3), stride=(1, 1), padding=(1, 1))
          )
        )
      )
      (1): Conv2d(128, 256, kernel_size=(2, 2), stride=(2, 2))
    )
    (m_body): MABlock(
      (res): Sequential(
        (0): MAConv(
          (fc0): Sequential(
            (0): Conv2d(128, 64, kernel_size=(1, 1), stride=(1, 1))
            (1): ReLU(inplace=True)
            (2): Conv2d(64, 256, kernel_size=(1, 1), stride=(1, 1))
          )
          (conv0): Conv2d(128, 128, kernel_size=(3, 3), stride=(1, 1), padding=(1, 1))
          (fc1): Sequential(
            (0): Conv2d(128, 64, kernel_size=(1, 1), stride=(1, 1))
            (1): ReLU(inplace=True)
            (2): Conv2d(64, 256, kernel_size=(1, 1), stride=(1, 1))
          )
          (conv1): Conv2d(128, 128, kernel_size=(3, 3), stride=(1, 1), padding=(1, 1))
        )
        (1): ReLU(inplace=True)
        (2): MAConv(
          (fc0): Sequential(
            (0): Conv2d(128, 64, kernel_size=(1, 1), stride=(1, 1))
            (1): ReLU(inplace=True)
            (2): Conv2d(64, 256, kernel_size=(1, 1), stride=(1, 1))
          )
          (conv0): Conv2d(128, 128, kernel_size=(3, 3), stride=(1, 1), padding=(1, 1))
          (fc1): Sequential(
            (0): Conv2d(128, 64, kernel_size=(1, 1), stride=(1, 1))
            (1): ReLU(inplace=True)
            (2): Conv2d(64, 256, kernel_size=(1, 1), stride=(1, 1))
          )
          (conv1): Conv2d(128, 128, kernel_size=(3, 3), stride=(1, 1), padding=(1, 1))
        )
      )
    )
    (m_up1): Sequential(
      (0): ConvTranspose2d(256, 128, kernel_size=(2, 2), stride=(2, 2))
      (1): MABlock(
        (res): Sequential(
          (0): MAConv(
            (fc0): Sequential(
              (0): Conv2d(64, 32, kernel_size=(1, 1), stride=(1, 1))
              (1): ReLU(inplace=True)
              (2): Conv2d(32, 128, kernel_size=(1, 1), stride=(1, 1))
            )
            (conv0): Conv2d(64, 64, kernel_size=(3, 3), stride=(1, 1), padding=(1, 1))
            (fc1): Sequential(
              (0): Conv2d(64, 32, kernel_size=(1, 1), stride=(1, 1))
              (1): ReLU(inplace=True)
              (2): Conv2d(32, 128, kernel_size=(1, 1), stride=(1, 1))
            )
            (conv1): Conv2d(64, 64, kernel_size=(3, 3), stride=(1, 1), padding=(1, 1))
          )
          (1): ReLU(inplace=True)
          (2): MAConv(
            (fc0): Sequential(
              (0): Conv2d(64, 32, kernel_size=(1, 1), stride=(1, 1))
              (1): ReLU(inplace=True)
              (2): Conv2d(32, 128, kernel_size=(1, 1), stride=(1, 1))
            )
            (conv0): Conv2d(64, 64, kernel_size=(3, 3), stride=(1, 1), padding=(1, 1))
            (fc1): Sequential(
              (0): Conv2d(64, 32, kernel_size=(1, 1), stride=(1, 1))
              (1): ReLU(inplace=True)
              (2): Conv2d(32, 128, kernel_size=(1, 1), stride=(1, 1))
            )
            (conv1): Conv2d(64, 64, kernel_size=(3, 3), stride=(1, 1), padding=(1, 1))
          )
        )
      )
    )
    (m_tail): Conv2d(128, 441, kernel_size=(3, 3), stride=(1, 1), padding=(1, 1))
    (softmax): Softmax(dim=1)
  )
)
22-10-27 18:39:10.939 - INFO: Loading model for K [../experiments/pretrained_models/stage1_MANet_x4.pth] ...
22-10-27 18:39:10.952 - INFO: Model [B_Model] is created.
22-10-27 18:39:10.952 - INFO: 
Testing [toy_dataset1]...
22-10-27 18:39:13.450 - INFO: toy1                 - PSNR/SSIM: 0.00/0.0000; PSNR_Y/SSIM_Y: 16.04/0.4651; LR_PSNR_Y/LR_SSIM_Y: inf/1.0000; PSNR_K: 53.24 dB.
…
